…
I0108 23:19:01.925948 18895 solver.cpp:92] Creating training net from net file: examples/cifar10_xnor/cifar10_full.proto
I0108 23:19:01.926183 18895 net.cpp:313] The NetState phase (0) differed from the phase (1) specified by a rule in layer cifar
I0108 23:19:01.926313 18895 net.cpp:49] Initializing net from parameters: 
name: "CIFAR10_full"
state {
  phase: TRAIN
}
layer {
  name: "cifar"
  type: "Data"
  top: "data"
  top: "label"
  include {
    phase: TRAIN
  }
  transform_param {
    mean_file: "examples/cifar10/mean.binaryproto"
  }
  data_param {
    source: "examples/cifar10/cifar10_train_lmdb"
    batch_size: 100
    backend: LMDB
  }
}
layer {
  name: "conv1"
  type: "Convolution"
  bottom: "data"
  top: "conv1"
  param {
    lr_mult: 1
  }
  param {
    lr_mult: 2
  }
  convolution_param {
    num_output: 32
    pad: 2
    kernel_size: 5
    stride: 1
    weight_filler {
      type: "gaussian"
      std: 0.0001
    }
    bias_filler {
      type: "constant"
    }
  }
}
layer {
  name: "pool1"
  type: "Pooling"
  bottom: "conv1"
  top: "pool1"
  pooling_param {
    pool: MAX
    kernel_size: 3
    stride: 2
  }
}
layer {
  name: "relu1"
  type: "ReLU"
  bottom: "pool1"
  top: "pool1"
}
layer {
  name: "norm1"
  type: "BatchNorm"
  bottom: "pool1"
  top: "norm1"
}
layer {
  name: "binactiv2"
  type: "BinActiv"
  bottom: "norm1"
  top: "B-norm1"
  top: "K-norm1-single"
  convolution_param {
    num_output: 1
    bias_term: false
    pad: 2
    kernel_size: 5
    stride: 1
    weight_filler {
      type: "constant"
      value: 1
    }
  }
}
layer {
  name: "binary-conv2-split-concat"
  type: "SplitConcat"
  bottom: "K-norm1-single"
  top: "K-norm1"
  convolution_param {
    num_output: 32
  }
}
layer {
  name: "binary-conv2"
  type: "BinaryConvolution"
  bottom: "B-norm1"
  top: "B-conv2"
  param {
    lr_mult: 1
  }
  param {
    lr_mult: 2
  }
  convolution_param {
    num_output: 32
    pad: 2
    kernel_size: 5
    stride: 1
    weight_filler {
      type: "gaussian"
      std: 0.01
    }
    bias_filler {
      type: "constant"
    }
  }
}
layer {
  name: "binary-conv2-merge"
  type: "Eltwise"
  bottom: "K-norm1"
  bottom: "B-conv2"
  top: "conv2"
  propagate_down: false
  propagate_down: true
  eltwise_param {
    operation: PROD
    stable_prod_grad: true
  }
}
layer {
  name: "relu2"
  type: "ReLU"
  bottom: "conv2"
  top: "conv2"
}
layer {
  name: "pool2"
  type: "Pooling"
  bottom: "conv2"
  top: "pool2"
  pooling_param {
    pool: AVE
    kernel_size: 3
    stride: 2
  }
}
layer {
  name: "norm2"
  type: "BatchNorm"
  bottom: "pool2"
  top: "norm2"
}
layer {
  name: "conv3"
  type: "Convolution"
  bottom: "norm2"
  top: "conv3"
  convolution_param {
    num_output: 64
    pad: 2
    kernel_size: 5
    stride: 1
    weight_filler {
      type: "gaussian"
      std: 0.01
    }
    bias_filler {
      type: "constant"
    }
  }
}
layer {
  name: "relu3"
  type: "ReLU"
  bottom: "conv3"
  top: "conv3"
}
layer {
  name: "pool3"
  type: "Pooling"
  bottom: "conv3"
  top: "pool3"
  pooling_param {
    pool: AVE
    kernel_size: 3
    stride: 2
  }
}
layer {
  name: "ip1"
  type: "InnerProduct"
  bottom: "pool3"
  top: "ip1"
  param {
    lr_mult: 1
    decay_mult: 250
  }
  param {
    lr_mult: 2
    decay_mult: 0
  }
  inner_product_param {
    num_output: 10
    weight_filler {
      type: "gaussian"
      std: 0.01
    }
    bias_filler {
      type: "constant"
    }
  }
}
layer {
  name: "accuracy"
  type: "Accuracy"
  bottom: "ip1"
  bottom: "label"
  top: "accuracy"
}
layer {
  name: "loss"
  type: "SoftmaxWithLoss"
  bottom: "ip1"
  bottom: "label"
  top: "loss"
}
I0108 23:19:01.926507 18895 layer_factory.hpp:77] Creating layer cifar
I0108 23:19:01.926895 18895 net.cpp:91] Creating Layer cifar
I0108 23:19:01.926910 18895 net.cpp:399] cifar -> data
I0108 23:19:01.926937 18895 net.cpp:399] cifar -> label
I0108 23:19:01.926952 18895 data_transformer.cpp:25] Loading mean file from: examples/cifar10/mean.binaryproto
I0108 23:19:01.927513 18901 db_lmdb.cpp:35] Opened lmdb examples/cifar10/cifar10_train_lmdb
I0108 23:19:01.934451 18895 data_layer.cpp:41] output data size: 100,3,32,32
I0108 23:19:01.937088 18895 net.cpp:141] Setting up cifar
I0108 23:19:01.937114 18895 net.cpp:148] Top shape: 100 3 32 32 (307200)
I0108 23:19:01.937121 18895 net.cpp:148] Top shape: 100 (100)
I0108 23:19:01.937125 18895 net.cpp:156] Memory required for data: 1229200
I0108 23:19:01.937137 18895 layer_factory.hpp:77] Creating layer label_cifar_1_split
I0108 23:19:01.937160 18895 net.cpp:91] Creating Layer label_cifar_1_split
I0108 23:19:01.937168 18895 net.cpp:425] label_cifar_1_split <- label
I0108 23:19:01.937182 18895 net.cpp:399] label_cifar_1_split -> label_cifar_1_split_0
I0108 23:19:01.937193 18895 net.cpp:399] label_cifar_1_split -> label_cifar_1_split_1
I0108 23:19:01.937232 18895 net.cpp:141] Setting up label_cifar_1_split
I0108 23:19:01.937240 18895 net.cpp:148] Top shape: 100 (100)
I0108 23:19:01.937245 18895 net.cpp:148] Top shape: 100 (100)
I0108 23:19:01.937248 18895 net.cpp:156] Memory required for data: 1230000
I0108 23:19:01.937252 18895 layer_factory.hpp:77] Creating layer conv1
I0108 23:19:01.937269 18895 net.cpp:91] Creating Layer conv1
I0108 23:19:01.937275 18895 net.cpp:425] conv1 <- data
I0108 23:19:01.937283 18895 net.cpp:399] conv1 -> conv1
I0108 23:19:01.937880 18895 net.cpp:141] Setting up conv1
I0108 23:19:01.937896 18895 net.cpp:148] Top shape: 100 32 32 32 (3276800)
I0108 23:19:01.937901 18895 net.cpp:156] Memory required for data: 14337200
I0108 23:19:01.937927 18895 layer_factory.hpp:77] Creating layer pool1
I0108 23:19:01.937938 18895 net.cpp:91] Creating Layer pool1
I0108 23:19:01.937952 18895 net.cpp:425] pool1 <- conv1
I0108 23:19:01.937963 18895 net.cpp:399] pool1 -> pool1
I0108 23:19:01.938015 18895 net.cpp:141] Setting up pool1
I0108 23:19:01.938025 18895 net.cpp:148] Top shape: 100 32 16 16 (819200)
I0108 23:19:01.938030 18895 net.cpp:156] Memory required for data: 17614000
I0108 23:19:01.938035 18895 layer_factory.hpp:77] Creating layer relu1
I0108 23:19:01.938046 18895 net.cpp:91] Creating Layer relu1
I0108 23:19:01.938063 18895 net.cpp:425] relu1 <- pool1
I0108 23:19:01.938071 18895 net.cpp:386] relu1 -> pool1 (in-place)
I0108 23:19:01.938079 18895 net.cpp:141] Setting up relu1
I0108 23:19:01.938086 18895 net.cpp:148] Top shape: 100 32 16 16 (819200)
I0108 23:19:01.938091 18895 net.cpp:156] Memory required for data: 20890800
I0108 23:19:01.938097 18895 layer_factory.hpp:77] Creating layer norm1
I0108 23:19:01.938107 18895 net.cpp:91] Creating Layer norm1
I0108 23:19:01.938112 18895 net.cpp:425] norm1 <- pool1
I0108 23:19:01.938117 18895 net.cpp:399] norm1 -> norm1
I0108 23:19:01.938424 18895 net.cpp:141] Setting up norm1
I0108 23:19:01.938436 18895 net.cpp:148] Top shape: 100 32 16 16 (819200)
I0108 23:19:01.938441 18895 net.cpp:156] Memory required for data: 24167600
I0108 23:19:01.938454 18895 layer_factory.hpp:77] Creating layer binactiv2
I0108 23:19:01.938465 18895 net.cpp:91] Creating Layer binactiv2
I0108 23:19:01.938472 18895 net.cpp:425] binactiv2 <- norm1
I0108 23:19:01.938480 18895 net.cpp:399] binactiv2 -> B-norm1
I0108 23:19:01.938489 18895 net.cpp:399] binactiv2 -> K-norm1-single
I0108 23:19:01.938505 18895 layer_factory.hpp:77] Creating layer binactiv2
I0108 23:19:01.938675 18895 net.cpp:141] Setting up binactiv2
I0108 23:19:01.938686 18895 net.cpp:148] Top shape: 100 32 16 16 (819200)
I0108 23:19:01.938694 18895 net.cpp:148] Top shape: 100 1 16 16 (25600)
I0108 23:19:01.938699 18895 net.cpp:156] Memory required for data: 27546800
I0108 23:19:01.938705 18895 layer_factory.hpp:77] Creating layer binary-conv2-split-concat
I0108 23:19:01.938735 18895 net.cpp:91] Creating Layer binary-conv2-split-concat
I0108 23:19:01.938745 18895 net.cpp:425] binary-conv2-split-concat <- K-norm1-single
I0108 23:19:01.938752 18895 net.cpp:399] binary-conv2-split-concat -> K-norm1
I0108 23:19:01.939216 18895 split_concat_layer.cpp:23] SplitLayer, top has 32 blobs
I0108 23:19:01.939254 18895 net.cpp:141] Setting up binary-conv2-split-concat
I0108 23:19:01.939265 18895 net.cpp:148] Top shape: 100 32 16 16 (819200)
I0108 23:19:01.939270 18895 net.cpp:156] Memory required for data: 30823600
I0108 23:19:01.939275 18895 layer_factory.hpp:77] Creating layer binary-conv2
I0108 23:19:01.939288 18895 net.cpp:91] Creating Layer binary-conv2
I0108 23:19:01.939293 18895 net.cpp:425] binary-conv2 <- B-norm1
I0108 23:19:01.939301 18895 net.cpp:399] binary-conv2 -> B-conv2
I0108 23:19:01.940099 18895 net.cpp:141] Setting up binary-conv2
I0108 23:19:01.940112 18895 net.cpp:148] Top shape: 100 32 16 16 (819200)
I0108 23:19:01.940119 18895 net.cpp:156] Memory required for data: 34100400
I0108 23:19:01.940170 18895 layer_factory.hpp:77] Creating layer binary-conv2-merge
I0108 23:19:01.940183 18895 net.cpp:91] Creating Layer binary-conv2-merge
I0108 23:19:01.940189 18895 net.cpp:425] binary-conv2-merge <- K-norm1
I0108 23:19:01.940196 18895 net.cpp:425] binary-conv2-merge <- B-conv2
I0108 23:19:01.940203 18895 net.cpp:399] binary-conv2-merge -> conv2
I0108 23:19:01.940239 18895 net.cpp:141] Setting up binary-conv2-merge
I0108 23:19:01.940249 18895 net.cpp:148] Top shape: 100 32 16 16 (819200)
I0108 23:19:01.940254 18895 net.cpp:156] Memory required for data: 37377200
I0108 23:19:01.940259 18895 layer_factory.hpp:77] Creating layer relu2
I0108 23:19:01.940268 18895 net.cpp:91] Creating Layer relu2
I0108 23:19:01.940273 18895 net.cpp:425] relu2 <- conv2
I0108 23:19:01.940280 18895 net.cpp:386] relu2 -> conv2 (in-place)
I0108 23:19:01.940289 18895 net.cpp:141] Setting up relu2
I0108 23:19:01.940294 18895 net.cpp:148] Top shape: 100 32 16 16 (819200)
I0108 23:19:01.940299 18895 net.cpp:156] Memory required for data: 40654000
I0108 23:19:01.940304 18895 layer_factory.hpp:77] Creating layer pool2
I0108 23:19:01.940312 18895 net.cpp:91] Creating Layer pool2
I0108 23:19:01.940316 18895 net.cpp:425] pool2 <- conv2
I0108 23:19:01.940325 18895 net.cpp:399] pool2 -> pool2
I0108 23:19:01.940346 18895 net.cpp:141] Setting up pool2
I0108 23:19:01.940354 18895 net.cpp:148] Top shape: 100 32 8 8 (204800)
I0108 23:19:01.940359 18895 net.cpp:156] Memory required for data: 41473200
I0108 23:19:01.940363 18895 layer_factory.hpp:77] Creating layer norm2
I0108 23:19:01.940373 18895 net.cpp:91] Creating Layer norm2
I0108 23:19:01.940379 18895 net.cpp:425] norm2 <- pool2
I0108 23:19:01.940387 18895 net.cpp:399] norm2 -> norm2
I0108 23:19:01.940523 18895 net.cpp:141] Setting up norm2
I0108 23:19:01.940533 18895 net.cpp:148] Top shape: 100 32 8 8 (204800)
I0108 23:19:01.940537 18895 net.cpp:156] Memory required for data: 42292400
I0108 23:19:01.940549 18895 layer_factory.hpp:77] Creating layer conv3
I0108 23:19:01.940562 18895 net.cpp:91] Creating Layer conv3
I0108 23:19:01.940568 18895 net.cpp:425] conv3 <- norm2
I0108 23:19:01.940575 18895 net.cpp:399] conv3 -> conv3
I0108 23:19:01.941237 18895 net.cpp:141] Setting up conv3
I0108 23:19:01.941248 18895 net.cpp:148] Top shape: 100 64 8 8 (409600)
I0108 23:19:01.941254 18895 net.cpp:156] Memory required for data: 43930800
I0108 23:19:01.941262 18895 layer_factory.hpp:77] Creating layer relu3
I0108 23:19:01.941270 18895 net.cpp:91] Creating Layer relu3
I0108 23:19:01.941275 18895 net.cpp:425] relu3 <- conv3
I0108 23:19:01.941283 18895 net.cpp:386] relu3 -> conv3 (in-place)
I0108 23:19:01.941290 18895 net.cpp:141] Setting up relu3
I0108 23:19:01.941298 18895 net.cpp:148] Top shape: 100 64 8 8 (409600)
I0108 23:19:01.941303 18895 net.cpp:156] Memory required for data: 45569200
I0108 23:19:01.941308 18895 layer_factory.hpp:77] Creating layer pool3
I0108 23:19:01.941314 18895 net.cpp:91] Creating Layer pool3
I0108 23:19:01.941318 18895 net.cpp:425] pool3 <- conv3
I0108 23:19:01.941344 18895 net.cpp:399] pool3 -> pool3
I0108 23:19:01.941365 18895 net.cpp:141] Setting up pool3
I0108 23:19:01.941375 18895 net.cpp:148] Top shape: 100 64 4 4 (102400)
I0108 23:19:01.941378 18895 net.cpp:156] Memory required for data: 45978800
I0108 23:19:01.941383 18895 layer_factory.hpp:77] Creating layer ip1
I0108 23:19:01.941400 18895 net.cpp:91] Creating Layer ip1
I0108 23:19:01.941406 18895 net.cpp:425] ip1 <- pool3
I0108 23:19:01.941411 18895 net.cpp:399] ip1 -> ip1
I0108 23:19:01.941916 18895 net.cpp:141] Setting up ip1
I0108 23:19:01.941928 18895 net.cpp:148] Top shape: 100 10 (1000)
I0108 23:19:01.941933 18895 net.cpp:156] Memory required for data: 45982800
I0108 23:19:01.941941 18895 layer_factory.hpp:77] Creating layer ip1_ip1_0_split
I0108 23:19:01.941951 18895 net.cpp:91] Creating Layer ip1_ip1_0_split
I0108 23:19:01.941956 18895 net.cpp:425] ip1_ip1_0_split <- ip1
I0108 23:19:01.941963 18895 net.cpp:399] ip1_ip1_0_split -> ip1_ip1_0_split_0
I0108 23:19:01.941972 18895 net.cpp:399] ip1_ip1_0_split -> ip1_ip1_0_split_1
I0108 23:19:01.942001 18895 net.cpp:141] Setting up ip1_ip1_0_split
I0108 23:19:01.942008 18895 net.cpp:148] Top shape: 100 10 (1000)
I0108 23:19:01.942014 18895 net.cpp:148] Top shape: 100 10 (1000)
I0108 23:19:01.942018 18895 net.cpp:156] Memory required for data: 45990800
I0108 23:19:01.942023 18895 layer_factory.hpp:77] Creating layer accuracy
I0108 23:19:01.942030 18895 net.cpp:91] Creating Layer accuracy
I0108 23:19:01.942035 18895 net.cpp:425] accuracy <- ip1_ip1_0_split_0
I0108 23:19:01.942041 18895 net.cpp:425] accuracy <- label_cifar_1_split_0
I0108 23:19:01.942049 18895 net.cpp:399] accuracy -> accuracy
…
