…
I0108 22:32:30.257972  8308 solver.cpp:92] Creating training net from net file: examples/cifar10/cifar10_full.proto
I0108 22:32:30.258215  8308 net.cpp:313] The NetState phase (0) differed from the phase (1) specified by a rule in layer cifar
I0108 22:32:30.258338  8308 net.cpp:49] Initializing net from parameters: 
name: "CIFAR10_full"
state {
  phase: TRAIN
}
layer {
  name: "cifar"
  type: "Data"
  top: "data"
  top: "label"
  include {
    phase: TRAIN
  }
  transform_param {
    mean_file: "examples/cifar10/mean.binaryproto"
  }
  data_param {
    source: "examples/cifar10/cifar10_train_lmdb"
    batch_size: 100
    backend: LMDB
  }
}
layer {
  name: "conv1"
  type: "Convolution"
  bottom: "data"
  top: "conv1"
  param {
    lr_mult: 1
  }
  param {
    lr_mult: 2
  }
  convolution_param {
    num_output: 32
    pad: 2
    kernel_size: 5
    stride: 1
    weight_filler {
      type: "gaussian"
      std: 0.0001
    }
    bias_filler {
      type: "constant"
    }
  }
}
layer {
  name: "pool1"
  type: "Pooling"
  bottom: "conv1"
  top: "pool1"
  pooling_param {
    pool: MAX
    kernel_size: 3
    stride: 2
  }
}
layer {
  name: "relu1"
  type: "ReLU"
  bottom: "pool1"
  top: "pool1"
}
layer {
  name: "norm1"
  type: "BatchNorm"
  bottom: "pool1"
  top: "norm1"
}
layer {
  name: "conv2"
  type: "Convolution"
  bottom: "norm1"
  top: "conv2"
  param {
    lr_mult: 1
  }
  param {
    lr_mult: 2
  }
  convolution_param {
    num_output: 32
    pad: 2
    kernel_size: 5
    stride: 1
    weight_filler {
      type: "gaussian"
      std: 0.01
    }
    bias_filler {
      type: "constant"
    }
  }
}
layer {
  name: "relu2"
  type: "ReLU"
  bottom: "conv2"
  top: "conv2"
}
layer {
  name: "pool2"
  type: "Pooling"
  bottom: "conv2"
  top: "pool2"
  pooling_param {
    pool: AVE
    kernel_size: 3
    stride: 2
  }
}
layer {
  name: "norm2"
  type: "BatchNorm"
  bottom: "pool2"
  top: "norm2"
}
layer {
  name: "conv3"
  type: "Convolution"
  bottom: "norm2"
  top: "conv3"
  convolution_param {
    num_output: 64
    pad: 2
    kernel_size: 5
    stride: 1
    weight_filler {
      type: "gaussian"
      std: 0.01
    }
    bias_filler {
      type: "constant"
    }
  }
}
layer {
  name: "relu3"
  type: "ReLU"
  bottom: "conv3"
  top: "conv3"
}
layer {
  name: "pool3"
  type: "Pooling"
  bottom: "conv3"
  top: "pool3"
  pooling_param {
    pool: AVE
    kernel_size: 3
    stride: 2
  }
}
layer {
  name: "ip1"
  type: "InnerProduct"
  bottom: "pool3"
  top: "ip1"
  param {
    lr_mult: 1
    decay_mult: 250
  }
  param {
    lr_mult: 2
    decay_mult: 0
  }
  inner_product_param {
    num_output: 10
    weight_filler {
      type: "gaussian"
      std: 0.01
    }
    bias_filler {
      type: "constant"
    }
  }
}
layer {
  name: "accuracy"
  type: "Accuracy"
  bottom: "ip1"
  bottom: "label"
  top: "accuracy"
}
layer {
  name: "loss"
  type: "SoftmaxWithLoss"
  bottom: "ip1"
  bottom: "label"
  top: "loss"
}
I0108 22:32:30.258483  8308 layer_factory.hpp:77] Creating layer cifar
I0108 22:32:30.258910  8308 net.cpp:91] Creating Layer cifar
I0108 22:32:30.258927  8308 net.cpp:399] cifar -> data
I0108 22:32:30.258963  8308 net.cpp:399] cifar -> label
I0108 22:32:30.258983  8308 data_transformer.cpp:25] Loading mean file from: examples/cifar10/mean.binaryproto
I0108 22:32:30.259600  8314 db_lmdb.cpp:35] Opened lmdb examples/cifar10/cifar10_train_lmdb
I0108 22:32:30.267339  8308 data_layer.cpp:41] output data size: 100,3,32,32
I0108 22:32:30.270265  8308 net.cpp:141] Setting up cifar
I0108 22:32:30.270300  8308 net.cpp:148] Top shape: 100 3 32 32 (307200)
I0108 22:32:30.270331  8308 net.cpp:148] Top shape: 100 (100)
I0108 22:32:30.270336  8308 net.cpp:156] Memory required for data: 1229200
I0108 22:32:30.270350  8308 layer_factory.hpp:77] Creating layer label_cifar_1_split
I0108 22:32:30.270364  8308 net.cpp:91] Creating Layer label_cifar_1_split
I0108 22:32:30.270373  8308 net.cpp:425] label_cifar_1_split <- label
I0108 22:32:30.270388  8308 net.cpp:399] label_cifar_1_split -> label_cifar_1_split_0
I0108 22:32:30.270401  8308 net.cpp:399] label_cifar_1_split -> label_cifar_1_split_1
I0108 22:32:30.270447  8308 net.cpp:141] Setting up label_cifar_1_split
I0108 22:32:30.270458  8308 net.cpp:148] Top shape: 100 (100)
I0108 22:32:30.270464  8308 net.cpp:148] Top shape: 100 (100)
I0108 22:32:30.270468  8308 net.cpp:156] Memory required for data: 1230000
I0108 22:32:30.270473  8308 layer_factory.hpp:77] Creating layer conv1
I0108 22:32:30.270493  8308 net.cpp:91] Creating Layer conv1
I0108 22:32:30.270499  8308 net.cpp:425] conv1 <- data
I0108 22:32:30.270509  8308 net.cpp:399] conv1 -> conv1
I0108 22:32:30.391744  8308 net.cpp:141] Setting up conv1
I0108 22:32:30.391788  8308 net.cpp:148] Top shape: 100 32 32 32 (3276800)
I0108 22:32:30.391793  8308 net.cpp:156] Memory required for data: 14337200
I0108 22:32:30.391829  8308 layer_factory.hpp:77] Creating layer pool1
I0108 22:32:30.391844  8308 net.cpp:91] Creating Layer pool1
I0108 22:32:30.391851  8308 net.cpp:425] pool1 <- conv1
I0108 22:32:30.391865  8308 net.cpp:399] pool1 -> pool1
I0108 22:32:30.391922  8308 net.cpp:141] Setting up pool1
I0108 22:32:30.391933  8308 net.cpp:148] Top shape: 100 32 16 16 (819200)
I0108 22:32:30.391940  8308 net.cpp:156] Memory required for data: 17614000
I0108 22:32:30.391948  8308 layer_factory.hpp:77] Creating layer relu1
I0108 22:32:30.391960  8308 net.cpp:91] Creating Layer relu1
I0108 22:32:30.391966  8308 net.cpp:425] relu1 <- pool1
I0108 22:32:30.391976  8308 net.cpp:386] relu1 -> pool1 (in-place)
I0108 22:32:30.392109  8308 net.cpp:141] Setting up relu1
I0108 22:32:30.392127  8308 net.cpp:148] Top shape: 100 32 16 16 (819200)
I0108 22:32:30.392132  8308 net.cpp:156] Memory required for data: 20890800
I0108 22:32:30.392137  8308 layer_factory.hpp:77] Creating layer norm1
I0108 22:32:30.392145  8308 net.cpp:91] Creating Layer norm1
I0108 22:32:30.392153  8308 net.cpp:425] norm1 <- pool1
I0108 22:32:30.392170  8308 net.cpp:399] norm1 -> norm1
I0108 22:32:30.392314  8308 net.cpp:141] Setting up norm1
I0108 22:32:30.392325  8308 net.cpp:148] Top shape: 100 32 16 16 (819200)
I0108 22:32:30.392333  8308 net.cpp:156] Memory required for data: 24167600
I0108 22:32:30.392348  8308 layer_factory.hpp:77] Creating layer conv2
I0108 22:32:30.392364  8308 net.cpp:91] Creating Layer conv2
I0108 22:32:30.392370  8308 net.cpp:425] conv2 <- norm1
I0108 22:32:30.392380  8308 net.cpp:399] conv2 -> conv2
I0108 22:32:30.393707  8308 net.cpp:141] Setting up conv2
I0108 22:32:30.393721  8308 net.cpp:148] Top shape: 100 32 16 16 (819200)
I0108 22:32:30.393729  8308 net.cpp:156] Memory required for data: 27444400
I0108 22:32:30.393743  8308 layer_factory.hpp:77] Creating layer relu2
I0108 22:32:30.393751  8308 net.cpp:91] Creating Layer relu2
I0108 22:32:30.393759  8308 net.cpp:425] relu2 <- conv2
I0108 22:32:30.393769  8308 net.cpp:386] relu2 -> conv2 (in-place)
I0108 22:32:30.393882  8308 net.cpp:141] Setting up relu2
I0108 22:32:30.393893  8308 net.cpp:148] Top shape: 100 32 16 16 (819200)
I0108 22:32:30.393900  8308 net.cpp:156] Memory required for data: 30721200
I0108 22:32:30.393908  8308 layer_factory.hpp:77] Creating layer pool2
I0108 22:32:30.393920  8308 net.cpp:91] Creating Layer pool2
I0108 22:32:30.393926  8308 net.cpp:425] pool2 <- conv2
I0108 22:32:30.393937  8308 net.cpp:399] pool2 -> pool2
I0108 22:32:30.394167  8308 net.cpp:141] Setting up pool2
I0108 22:32:30.394181  8308 net.cpp:148] Top shape: 100 32 8 8 (204800)
I0108 22:32:30.394187  8308 net.cpp:156] Memory required for data: 31540400
I0108 22:32:30.394196  8308 layer_factory.hpp:77] Creating layer norm2
I0108 22:32:30.394207  8308 net.cpp:91] Creating Layer norm2
I0108 22:32:30.394235  8308 net.cpp:425] norm2 <- pool2
I0108 22:32:30.394246  8308 net.cpp:399] norm2 -> norm2
I0108 22:32:30.394388  8308 net.cpp:141] Setting up norm2
I0108 22:32:30.394399  8308 net.cpp:148] Top shape: 100 32 8 8 (204800)
I0108 22:32:30.394407  8308 net.cpp:156] Memory required for data: 32359600
I0108 22:32:30.394423  8308 layer_factory.hpp:77] Creating layer conv3
I0108 22:32:30.394435  8308 net.cpp:91] Creating Layer conv3
I0108 22:32:30.394441  8308 net.cpp:425] conv3 <- norm2
I0108 22:32:30.394453  8308 net.cpp:399] conv3 -> conv3
I0108 22:32:30.395570  8308 net.cpp:141] Setting up conv3
I0108 22:32:30.395584  8308 net.cpp:148] Top shape: 100 64 8 8 (409600)
I0108 22:32:30.395591  8308 net.cpp:156] Memory required for data: 33998000
I0108 22:32:30.395604  8308 layer_factory.hpp:77] Creating layer relu3
I0108 22:32:30.395614  8308 net.cpp:91] Creating Layer relu3
I0108 22:32:30.395622  8308 net.cpp:425] relu3 <- conv3
I0108 22:32:30.395632  8308 net.cpp:386] relu3 -> conv3 (in-place)
I0108 22:32:30.395738  8308 net.cpp:141] Setting up relu3
I0108 22:32:30.395750  8308 net.cpp:148] Top shape: 100 64 8 8 (409600)
I0108 22:32:30.395757  8308 net.cpp:156] Memory required for data: 35636400
I0108 22:32:30.395766  8308 layer_factory.hpp:77] Creating layer pool3
I0108 22:32:30.395776  8308 net.cpp:91] Creating Layer pool3
I0108 22:32:30.395782  8308 net.cpp:425] pool3 <- conv3
I0108 22:32:30.395792  8308 net.cpp:399] pool3 -> pool3
I0108 22:32:30.396018  8308 net.cpp:141] Setting up pool3
I0108 22:32:30.396031  8308 net.cpp:148] Top shape: 100 64 4 4 (102400)
I0108 22:32:30.396039  8308 net.cpp:156] Memory required for data: 36046000
I0108 22:32:30.396046  8308 layer_factory.hpp:77] Creating layer ip1
I0108 22:32:30.396059  8308 net.cpp:91] Creating Layer ip1
I0108 22:32:30.396065  8308 net.cpp:425] ip1 <- pool3
I0108 22:32:30.396076  8308 net.cpp:399] ip1 -> ip1
I0108 22:32:30.396555  8308 net.cpp:141] Setting up ip1
I0108 22:32:30.396569  8308 net.cpp:148] Top shape: 100 10 (1000)
I0108 22:32:30.396575  8308 net.cpp:156] Memory required for data: 36050000
I0108 22:32:30.396589  8308 layer_factory.hpp:77] Creating layer ip1_ip1_0_split
I0108 22:32:30.396598  8308 net.cpp:91] Creating Layer ip1_ip1_0_split
I0108 22:32:30.396605  8308 net.cpp:425] ip1_ip1_0_split <- ip1
I0108 22:32:30.396615  8308 net.cpp:399] ip1_ip1_0_split -> ip1_ip1_0_split_0
I0108 22:32:30.396626  8308 net.cpp:399] ip1_ip1_0_split -> ip1_ip1_0_split_1
I0108 22:32:30.396658  8308 net.cpp:141] Setting up ip1_ip1_0_split
I0108 22:32:30.396668  8308 net.cpp:148] Top shape: 100 10 (1000)
I0108 22:32:30.396677  8308 net.cpp:148] Top shape: 100 10 (1000)
I0108 22:32:30.396683  8308 net.cpp:156] Memory required for data: 36058000
I0108 22:32:30.396692  8308 layer_factory.hpp:77] Creating layer accuracy
I0108 22:32:30.396709  8308 net.cpp:91] Creating Layer accuracy
I0108 22:32:30.396716  8308 net.cpp:425] accuracy <- ip1_ip1_0_split_0
I0108 22:32:30.396726  8308 net.cpp:425] accuracy <- label_cifar_1_split_0
I0108 22:32:30.396736  8308 net.cpp:399] accuracy -> accuracy
…
