…
I0109 06:16:05.771950 21660 solver.cpp:92] Creating training net from net file: examples/cifar10/cifar10_full.proto
I0109 06:16:05.772174 21660 net.cpp:313] The NetState phase (0) differed from the phase (1) specified by a rule in layer cifar
I0109 06:16:05.772287 21660 net.cpp:49] Initializing net from parameters: 
name: "CIFAR10_full"
state {
  phase: TRAIN
}
layer {
  name: "cifar"
  type: "Data"
  top: "data"
  top: "label"
  include {
    phase: TRAIN
  }
  transform_param {
    mean_file: "examples/cifar10/mean.binaryproto"
  }
  data_param {
    source: "examples/cifar10/cifar10_train_lmdb"
    batch_size: 100
    backend: LMDB
  }
}
layer {
  name: "conv1"
  type: "Convolution"
  bottom: "data"
  top: "conv1"
  param {
    lr_mult: 1
  }
  param {
    lr_mult: 2
  }
  convolution_param {
    num_output: 32
    pad: 2
    kernel_size: 5
    stride: 1
    weight_filler {
      type: "gaussian"
      std: 0.0001
    }
    bias_filler {
      type: "constant"
    }
  }
}
layer {
  name: "pool1"
  type: "Pooling"
  bottom: "conv1"
  top: "pool1"
  pooling_param {
    pool: MAX
    kernel_size: 3
    stride: 2
  }
}
layer {
  name: "relu1"
  type: "ReLU"
  bottom: "pool1"
  top: "pool1"
}
layer {
  name: "norm1"
  type: "BatchNorm"
  bottom: "pool1"
  top: "norm1"
}
layer {
  name: "conv2"
  type: "Convolution"
  bottom: "norm1"
  top: "conv2"
  param {
    lr_mult: 1
  }
  param {
    lr_mult: 2
  }
  convolution_param {
    num_output: 32
    pad: 2
    kernel_size: 5
    stride: 1
    weight_filler {
      type: "gaussian"
      std: 0.01
    }
    bias_filler {
      type: "constant"
    }
  }
}
layer {
  name: "relu2"
  type: "ReLU"
  bottom: "conv2"
  top: "conv2"
}
layer {
  name: "pool2"
  type: "Pooling"
  bottom: "conv2"
  top: "pool2"
  pooling_param {
    pool: AVE
    kernel_size: 3
    stride: 2
  }
}
layer {
  name: "norm2"
  type: "BatchNorm"
  bottom: "pool2"
  top: "norm2"
}
layer {
  name: "conv3"
  type: "Convolution"
  bottom: "norm2"
  top: "conv3"
  convolution_param {
    num_output: 64
    pad: 2
    kernel_size: 5
    stride: 1
    weight_filler {
      type: "gaussian"
      std: 0.01
    }
    bias_filler {
      type: "constant"
    }
  }
}
layer {
  name: "relu3"
  type: "ReLU"
  bottom: "conv3"
  top: "conv3"
}
layer {
  name: "pool3"
  type: "Pooling"
  bottom: "conv3"
  top: "pool3"
  pooling_param {
    pool: AVE
    kernel_size: 3
    stride: 2
  }
}
layer {
  name: "ip1"
  type: "InnerProduct"
  bottom: "pool3"
  top: "ip1"
  param {
    lr_mult: 1
    decay_mult: 250
  }
  param {
    lr_mult: 2
    decay_mult: 0
  }
  inner_product_param {
    num_output: 10
    weight_filler {
      type: "gaussian"
      std: 0.01
    }
    bias_filler {
      type: "constant"
    }
  }
}
layer {
  name: "accuracy"
  type: "Accuracy"
  bottom: "ip1"
  bottom: "label"
  top: "accuracy"
}
layer {
  name: "loss"
  type: "SoftmaxWithLoss"
  bottom: "ip1"
  bottom: "label"
  top: "loss"
}
I0109 06:16:05.772430 21660 layer_factory.hpp:77] Creating layer cifar
I0109 06:16:05.772833 21660 net.cpp:91] Creating Layer cifar
I0109 06:16:05.772847 21660 net.cpp:399] cifar -> data
I0109 06:16:05.772873 21660 net.cpp:399] cifar -> label
I0109 06:16:05.772889 21660 data_transformer.cpp:25] Loading mean file from: examples/cifar10/mean.binaryproto
I0109 06:16:05.773519 21666 db_lmdb.cpp:35] Opened lmdb examples/cifar10/cifar10_train_lmdb
I0109 06:16:05.781513 21660 data_layer.cpp:41] output data size: 100,3,32,32
I0109 06:16:05.784670 21660 net.cpp:141] Setting up cifar
I0109 06:16:05.784701 21660 net.cpp:148] Top shape: 100 3 32 32 (307200)
I0109 06:16:05.784731 21660 net.cpp:148] Top shape: 100 (100)
I0109 06:16:05.784737 21660 net.cpp:156] Memory required for data: 1229200
I0109 06:16:05.784751 21660 layer_factory.hpp:77] Creating layer label_cifar_1_split
I0109 06:16:05.784770 21660 net.cpp:91] Creating Layer label_cifar_1_split
I0109 06:16:05.784780 21660 net.cpp:425] label_cifar_1_split <- label
I0109 06:16:05.784793 21660 net.cpp:399] label_cifar_1_split -> label_cifar_1_split_0
I0109 06:16:05.784807 21660 net.cpp:399] label_cifar_1_split -> label_cifar_1_split_1
I0109 06:16:05.784850 21660 net.cpp:141] Setting up label_cifar_1_split
I0109 06:16:05.784859 21660 net.cpp:148] Top shape: 100 (100)
I0109 06:16:05.784867 21660 net.cpp:148] Top shape: 100 (100)
I0109 06:16:05.784870 21660 net.cpp:156] Memory required for data: 1230000
I0109 06:16:05.784876 21660 layer_factory.hpp:77] Creating layer conv1
I0109 06:16:05.784898 21660 net.cpp:91] Creating Layer conv1
I0109 06:16:05.784904 21660 net.cpp:425] conv1 <- data
I0109 06:16:05.784914 21660 net.cpp:399] conv1 -> conv1
I0109 06:16:05.785852 21660 net.cpp:141] Setting up conv1
I0109 06:16:05.785874 21660 net.cpp:148] Top shape: 100 32 32 32 (3276800)
I0109 06:16:05.785884 21660 net.cpp:156] Memory required for data: 14337200
I0109 06:16:05.785912 21660 layer_factory.hpp:77] Creating layer pool1
I0109 06:16:05.785925 21660 net.cpp:91] Creating Layer pool1
I0109 06:16:05.785931 21660 net.cpp:425] pool1 <- conv1
I0109 06:16:05.785941 21660 net.cpp:399] pool1 -> pool1
I0109 06:16:05.786211 21660 net.cpp:141] Setting up pool1
I0109 06:16:05.786222 21660 net.cpp:148] Top shape: 100 32 16 16 (819200)
I0109 06:16:05.786227 21660 net.cpp:156] Memory required for data: 17614000
I0109 06:16:05.786240 21660 layer_factory.hpp:77] Creating layer relu1
I0109 06:16:05.786250 21660 net.cpp:91] Creating Layer relu1
I0109 06:16:05.786257 21660 net.cpp:425] relu1 <- pool1
I0109 06:16:05.786264 21660 net.cpp:386] relu1 -> pool1 (in-place)
I0109 06:16:05.786281 21660 net.cpp:141] Setting up relu1
I0109 06:16:05.786288 21660 net.cpp:148] Top shape: 100 32 16 16 (819200)
I0109 06:16:05.786293 21660 net.cpp:156] Memory required for data: 20890800
I0109 06:16:05.786299 21660 layer_factory.hpp:77] Creating layer norm1
I0109 06:16:05.786309 21660 net.cpp:91] Creating Layer norm1
I0109 06:16:05.786317 21660 net.cpp:425] norm1 <- pool1
I0109 06:16:05.786327 21660 net.cpp:399] norm1 -> norm1
I0109 06:16:05.786486 21660 net.cpp:141] Setting up norm1
I0109 06:16:05.786496 21660 net.cpp:148] Top shape: 100 32 16 16 (819200)
I0109 06:16:05.786500 21660 net.cpp:156] Memory required for data: 24167600
I0109 06:16:05.786514 21660 layer_factory.hpp:77] Creating layer conv2
I0109 06:16:05.786525 21660 net.cpp:91] Creating Layer conv2
I0109 06:16:05.786530 21660 net.cpp:425] conv2 <- norm1
I0109 06:16:05.786540 21660 net.cpp:399] conv2 -> conv2
I0109 06:16:05.787538 21660 net.cpp:141] Setting up conv2
I0109 06:16:05.787561 21660 net.cpp:148] Top shape: 100 32 16 16 (819200)
I0109 06:16:05.787566 21660 net.cpp:156] Memory required for data: 27444400
I0109 06:16:05.787575 21660 layer_factory.hpp:77] Creating layer relu2
I0109 06:16:05.787583 21660 net.cpp:91] Creating Layer relu2
I0109 06:16:05.787590 21660 net.cpp:425] relu2 <- conv2
I0109 06:16:05.787596 21660 net.cpp:386] relu2 -> conv2 (in-place)
I0109 06:16:05.787605 21660 net.cpp:141] Setting up relu2
I0109 06:16:05.787611 21660 net.cpp:148] Top shape: 100 32 16 16 (819200)
I0109 06:16:05.787614 21660 net.cpp:156] Memory required for data: 30721200
I0109 06:16:05.787619 21660 layer_factory.hpp:77] Creating layer pool2
I0109 06:16:05.787629 21660 net.cpp:91] Creating Layer pool2
I0109 06:16:05.787634 21660 net.cpp:425] pool2 <- conv2
I0109 06:16:05.787641 21660 net.cpp:399] pool2 -> pool2
I0109 06:16:05.787761 21660 net.cpp:141] Setting up pool2
I0109 06:16:05.787770 21660 net.cpp:148] Top shape: 100 32 8 8 (204800)
I0109 06:16:05.787775 21660 net.cpp:156] Memory required for data: 31540400
I0109 06:16:05.787780 21660 layer_factory.hpp:77] Creating layer norm2
I0109 06:16:05.787786 21660 net.cpp:91] Creating Layer norm2
I0109 06:16:05.787811 21660 net.cpp:425] norm2 <- pool2
I0109 06:16:05.787820 21660 net.cpp:399] norm2 -> norm2
I0109 06:16:05.787961 21660 net.cpp:141] Setting up norm2
I0109 06:16:05.787972 21660 net.cpp:148] Top shape: 100 32 8 8 (204800)
I0109 06:16:05.787976 21660 net.cpp:156] Memory required for data: 32359600
I0109 06:16:05.787988 21660 layer_factory.hpp:77] Creating layer conv3
I0109 06:16:05.787999 21660 net.cpp:91] Creating Layer conv3
I0109 06:16:05.788010 21660 net.cpp:425] conv3 <- norm2
I0109 06:16:05.788019 21660 net.cpp:399] conv3 -> conv3
I0109 06:16:05.788607 21660 net.cpp:141] Setting up conv3
I0109 06:16:05.788617 21660 net.cpp:148] Top shape: 100 64 8 8 (409600)
I0109 06:16:05.788621 21660 net.cpp:156] Memory required for data: 33998000
I0109 06:16:05.788628 21660 layer_factory.hpp:77] Creating layer relu3
I0109 06:16:05.788637 21660 net.cpp:91] Creating Layer relu3
I0109 06:16:05.788642 21660 net.cpp:425] relu3 <- conv3
I0109 06:16:05.788648 21660 net.cpp:386] relu3 -> conv3 (in-place)
I0109 06:16:05.788655 21660 net.cpp:141] Setting up relu3
I0109 06:16:05.788661 21660 net.cpp:148] Top shape: 100 64 8 8 (409600)
I0109 06:16:05.788666 21660 net.cpp:156] Memory required for data: 35636400
I0109 06:16:05.788671 21660 layer_factory.hpp:77] Creating layer pool3
I0109 06:16:05.788678 21660 net.cpp:91] Creating Layer pool3
I0109 06:16:05.788683 21660 net.cpp:425] pool3 <- conv3
I0109 06:16:05.788689 21660 net.cpp:399] pool3 -> pool3
I0109 06:16:05.788712 21660 net.cpp:141] Setting up pool3
I0109 06:16:05.788718 21660 net.cpp:148] Top shape: 100 64 4 4 (102400)
I0109 06:16:05.788722 21660 net.cpp:156] Memory required for data: 36046000
I0109 06:16:05.788727 21660 layer_factory.hpp:77] Creating layer ip1
I0109 06:16:05.788735 21660 net.cpp:91] Creating Layer ip1
I0109 06:16:05.788743 21660 net.cpp:425] ip1 <- pool3
I0109 06:16:05.788748 21660 net.cpp:399] ip1 -> ip1
I0109 06:16:05.789414 21660 net.cpp:141] Setting up ip1
I0109 06:16:05.789428 21660 net.cpp:148] Top shape: 100 10 (1000)
I0109 06:16:05.789433 21660 net.cpp:156] Memory required for data: 36050000
I0109 06:16:05.789440 21660 layer_factory.hpp:77] Creating layer ip1_ip1_0_split
I0109 06:16:05.789449 21660 net.cpp:91] Creating Layer ip1_ip1_0_split
I0109 06:16:05.789454 21660 net.cpp:425] ip1_ip1_0_split <- ip1
I0109 06:16:05.789463 21660 net.cpp:399] ip1_ip1_0_split -> ip1_ip1_0_split_0
I0109 06:16:05.789470 21660 net.cpp:399] ip1_ip1_0_split -> ip1_ip1_0_split_1
I0109 06:16:05.789499 21660 net.cpp:141] Setting up ip1_ip1_0_split
I0109 06:16:05.789507 21660 net.cpp:148] Top shape: 100 10 (1000)
I0109 06:16:05.789511 21660 net.cpp:148] Top shape: 100 10 (1000)
I0109 06:16:05.789520 21660 net.cpp:156] Memory required for data: 36058000
I0109 06:16:05.789526 21660 layer_factory.hpp:77] Creating layer accuracy
I0109 06:16:05.789535 21660 net.cpp:91] Creating Layer accuracy
I0109 06:16:05.789541 21660 net.cpp:425] accuracy <- ip1_ip1_0_split_0
I0109 06:16:05.789546 21660 net.cpp:425] accuracy <- label_cifar_1_split_0
I0109 06:16:05.789559 21660 net.cpp:399] accuracy -> accuracy
…
