…
I0108 22:22:57.920341  3496 solver.cpp:92] Creating training net from net file: examples/cifar10/cifar10_full.proto
I0108 22:22:57.920819  3496 net.cpp:313] The NetState phase (0) differed from the phase (1) specified by a rule in layer cifar
I0108 22:22:57.920984  3496 net.cpp:49] Initializing net from parameters: 
name: "CIFAR10_full"
state {
  phase: TRAIN
}
layer {
  name: "cifar"
  type: "Data"
  top: "data"
  top: "label"
  include {
    phase: TRAIN
  }
  transform_param {
    mean_file: "examples/cifar10/mean.binaryproto"
  }
  data_param {
    source: "examples/cifar10/cifar10_train_lmdb"
    batch_size: 100
    backend: LMDB
  }
}
layer {
  name: "conv1"
  type: "Convolution"
  bottom: "data"
  top: "conv1"
  param {
    lr_mult: 1
  }
  param {
    lr_mult: 2
  }
  convolution_param {
    num_output: 32
    pad: 2
    kernel_size: 5
    stride: 1
    weight_filler {
      type: "gaussian"
      std: 0.0001
    }
    bias_filler {
      type: "constant"
    }
  }
}
layer {
  name: "pool1"
  type: "Pooling"
  bottom: "conv1"
  top: "pool1"
  pooling_param {
    pool: MAX
    kernel_size: 3
    stride: 2
  }
}
layer {
  name: "relu1"
  type: "ReLU"
  bottom: "pool1"
  top: "pool1"
}
layer {
  name: "norm1"
  type: "BatchNorm"
  bottom: "pool1"
  top: "norm1"
}
layer {
  name: "conv2"
  type: "Convolution"
  bottom: "norm1"
  top: "conv2"
  param {
    lr_mult: 1
  }
  param {
    lr_mult: 2
  }
  convolution_param {
    num_output: 32
    pad: 2
    kernel_size: 5
    stride: 1
    weight_filler {
      type: "gaussian"
      std: 0.01
    }
    bias_filler {
      type: "constant"
    }
  }
}
layer {
  name: "relu2"
  type: "ReLU"
  bottom: "conv2"
  top: "conv2"
}
layer {
  name: "pool2"
  type: "Pooling"
  bottom: "conv2"
  top: "pool2"
  pooling_param {
    pool: AVE
    kernel_size: 3
    stride: 2
  }
}
layer {
  name: "norm2"
  type: "BatchNorm"
  bottom: "pool2"
  top: "norm2"
}
layer {
  name: "conv3"
  type: "Convolution"
  bottom: "norm2"
  top: "conv3"
  convolution_param {
    num_output: 64
    pad: 2
    kernel_size: 5
    stride: 1
    weight_filler {
      type: "gaussian"
      std: 0.01
    }
    bias_filler {
      type: "constant"
    }
  }
}
layer {
  name: "relu3"
  type: "ReLU"
  bottom: "conv3"
  top: "conv3"
}
layer {
  name: "pool3"
  type: "Pooling"
  bottom: "conv3"
  top: "pool3"
  pooling_param {
    pool: AVE
    kernel_size: 3
    stride: 2
  }
}
layer {
  name: "ip1"
  type: "InnerProduct"
  bottom: "pool3"
  top: "ip1"
  param {
    lr_mult: 1
    decay_mult: 250
  }
  param {
    lr_mult: 2
    decay_mult: 0
  }
  inner_product_param {
    num_output: 10
    weight_filler {
      type: "gaussian"
      std: 0.01
    }
    bias_filler {
      type: "constant"
    }
  }
}
layer {
  name: "accuracy"
  type: "Accuracy"
  bottom: "ip1"
  bottom: "label"
  top: "accuracy"
}
layer {
  name: "loss"
  type: "SoftmaxWithLoss"
  bottom: "ip1"
  bottom: "label"
  top: "loss"
}
I0108 22:22:57.921210  3496 layer_factory.hpp:77] Creating layer cifar
I0108 22:22:57.921773  3496 net.cpp:91] Creating Layer cifar
I0108 22:22:57.921799  3496 net.cpp:399] cifar -> data
I0108 22:22:57.921833  3496 net.cpp:399] cifar -> label
I0108 22:22:57.921854  3496 data_transformer.cpp:25] Loading mean file from: examples/cifar10/mean.binaryproto
I0108 22:22:57.922767  3502 db_lmdb.cpp:35] Opened lmdb examples/cifar10/cifar10_train_lmdb
I0108 22:22:57.936753  3496 data_layer.cpp:41] output data size: 100,3,32,32
I0108 22:22:57.940984  3496 net.cpp:141] Setting up cifar
I0108 22:22:57.941015  3496 net.cpp:148] Top shape: 100 3 32 32 (307200)
I0108 22:22:57.941053  3496 net.cpp:148] Top shape: 100 (100)
I0108 22:22:57.941061  3496 net.cpp:156] Memory required for data: 1229200
I0108 22:22:57.941078  3496 layer_factory.hpp:77] Creating layer label_cifar_1_split
I0108 22:22:57.941109  3496 net.cpp:91] Creating Layer label_cifar_1_split
I0108 22:22:57.941128  3496 net.cpp:425] label_cifar_1_split <- label
I0108 22:22:57.941154  3496 net.cpp:399] label_cifar_1_split -> label_cifar_1_split_0
I0108 22:22:57.941169  3496 net.cpp:399] label_cifar_1_split -> label_cifar_1_split_1
I0108 22:22:57.941210  3496 net.cpp:141] Setting up label_cifar_1_split
I0108 22:22:57.941220  3496 net.cpp:148] Top shape: 100 (100)
I0108 22:22:57.941226  3496 net.cpp:148] Top shape: 100 (100)
I0108 22:22:57.941231  3496 net.cpp:156] Memory required for data: 1230000
I0108 22:22:57.941236  3496 layer_factory.hpp:77] Creating layer conv1
I0108 22:22:57.941260  3496 net.cpp:91] Creating Layer conv1
I0108 22:22:57.941267  3496 net.cpp:425] conv1 <- data
I0108 22:22:57.941277  3496 net.cpp:399] conv1 -> conv1
I0108 22:22:58.385671  3496 net.cpp:141] Setting up conv1
I0108 22:22:58.385718  3496 net.cpp:148] Top shape: 100 32 32 32 (3276800)
I0108 22:22:58.385727  3496 net.cpp:156] Memory required for data: 14337200
I0108 22:22:58.385758  3496 layer_factory.hpp:77] Creating layer pool1
I0108 22:22:58.385779  3496 net.cpp:91] Creating Layer pool1
I0108 22:22:58.385788  3496 net.cpp:425] pool1 <- conv1
I0108 22:22:58.385800  3496 net.cpp:399] pool1 -> pool1
I0108 22:22:58.387615  3496 net.cpp:141] Setting up pool1
I0108 22:22:58.387632  3496 net.cpp:148] Top shape: 100 32 16 16 (819200)
I0108 22:22:58.387639  3496 net.cpp:156] Memory required for data: 17614000
I0108 22:22:58.387646  3496 layer_factory.hpp:77] Creating layer relu1
I0108 22:22:58.387662  3496 net.cpp:91] Creating Layer relu1
I0108 22:22:58.387672  3496 net.cpp:425] relu1 <- pool1
I0108 22:22:58.387684  3496 net.cpp:386] relu1 -> pool1 (in-place)
I0108 22:22:58.387893  3496 net.cpp:141] Setting up relu1
I0108 22:22:58.387910  3496 net.cpp:148] Top shape: 100 32 16 16 (819200)
I0108 22:22:58.387917  3496 net.cpp:156] Memory required for data: 20890800
I0108 22:22:58.387923  3496 layer_factory.hpp:77] Creating layer norm1
I0108 22:22:58.387934  3496 net.cpp:91] Creating Layer norm1
I0108 22:22:58.387943  3496 net.cpp:425] norm1 <- pool1
I0108 22:22:58.387956  3496 net.cpp:399] norm1 -> norm1
I0108 22:22:58.388222  3496 net.cpp:141] Setting up norm1
I0108 22:22:58.388237  3496 net.cpp:148] Top shape: 100 32 16 16 (819200)
I0108 22:22:58.388244  3496 net.cpp:156] Memory required for data: 24167600
I0108 22:22:58.388263  3496 layer_factory.hpp:77] Creating layer conv2
I0108 22:22:58.388286  3496 net.cpp:91] Creating Layer conv2
I0108 22:22:58.388295  3496 net.cpp:425] conv2 <- norm1
I0108 22:22:58.388306  3496 net.cpp:399] conv2 -> conv2
I0108 22:22:58.390628  3496 net.cpp:141] Setting up conv2
I0108 22:22:58.390650  3496 net.cpp:148] Top shape: 100 32 16 16 (819200)
I0108 22:22:58.390657  3496 net.cpp:156] Memory required for data: 27444400
I0108 22:22:58.390671  3496 layer_factory.hpp:77] Creating layer relu2
I0108 22:22:58.390686  3496 net.cpp:91] Creating Layer relu2
I0108 22:22:58.390696  3496 net.cpp:425] relu2 <- conv2
I0108 22:22:58.390704  3496 net.cpp:386] relu2 -> conv2 (in-place)
I0108 22:22:58.390941  3496 net.cpp:141] Setting up relu2
I0108 22:22:58.390959  3496 net.cpp:148] Top shape: 100 32 16 16 (819200)
I0108 22:22:58.390965  3496 net.cpp:156] Memory required for data: 30721200
I0108 22:22:58.390972  3496 layer_factory.hpp:77] Creating layer pool2
I0108 22:22:58.390987  3496 net.cpp:91] Creating Layer pool2
I0108 22:22:58.390996  3496 net.cpp:425] pool2 <- conv2
I0108 22:22:58.391008  3496 net.cpp:399] pool2 -> pool2
I0108 22:22:58.391392  3496 net.cpp:141] Setting up pool2
I0108 22:22:58.391412  3496 net.cpp:148] Top shape: 100 32 8 8 (204800)
I0108 22:22:58.391418  3496 net.cpp:156] Memory required for data: 31540400
I0108 22:22:58.391425  3496 layer_factory.hpp:77] Creating layer norm2
I0108 22:22:58.391438  3496 net.cpp:91] Creating Layer norm2
I0108 22:22:58.391474  3496 net.cpp:425] norm2 <- pool2
I0108 22:22:58.391487  3496 net.cpp:399] norm2 -> norm2
I0108 22:22:58.391752  3496 net.cpp:141] Setting up norm2
I0108 22:22:58.391767  3496 net.cpp:148] Top shape: 100 32 8 8 (204800)
I0108 22:22:58.391772  3496 net.cpp:156] Memory required for data: 32359600
I0108 22:22:58.391790  3496 layer_factory.hpp:77] Creating layer conv3
I0108 22:22:58.391808  3496 net.cpp:91] Creating Layer conv3
I0108 22:22:58.391819  3496 net.cpp:425] conv3 <- norm2
I0108 22:22:58.391834  3496 net.cpp:399] conv3 -> conv3
I0108 22:22:58.394304  3496 net.cpp:141] Setting up conv3
I0108 22:22:58.394325  3496 net.cpp:148] Top shape: 100 64 8 8 (409600)
I0108 22:22:58.394331  3496 net.cpp:156] Memory required for data: 33998000
I0108 22:22:58.394343  3496 layer_factory.hpp:77] Creating layer relu3
I0108 22:22:58.394356  3496 net.cpp:91] Creating Layer relu3
I0108 22:22:58.394366  3496 net.cpp:425] relu3 <- conv3
I0108 22:22:58.394379  3496 net.cpp:386] relu3 -> conv3 (in-place)
I0108 22:22:58.394582  3496 net.cpp:141] Setting up relu3
I0108 22:22:58.394600  3496 net.cpp:148] Top shape: 100 64 8 8 (409600)
I0108 22:22:58.394608  3496 net.cpp:156] Memory required for data: 35636400
I0108 22:22:58.394614  3496 layer_factory.hpp:77] Creating layer pool3
I0108 22:22:58.394625  3496 net.cpp:91] Creating Layer pool3
I0108 22:22:58.394634  3496 net.cpp:425] pool3 <- conv3
I0108 22:22:58.394645  3496 net.cpp:399] pool3 -> pool3
I0108 22:22:58.395045  3496 net.cpp:141] Setting up pool3
I0108 22:22:58.395063  3496 net.cpp:148] Top shape: 100 64 4 4 (102400)
I0108 22:22:58.395071  3496 net.cpp:156] Memory required for data: 36046000
I0108 22:22:58.395077  3496 layer_factory.hpp:77] Creating layer ip1
I0108 22:22:58.395092  3496 net.cpp:91] Creating Layer ip1
I0108 22:22:58.395102  3496 net.cpp:425] ip1 <- pool3
I0108 22:22:58.395117  3496 net.cpp:399] ip1 -> ip1
I0108 22:22:58.395876  3496 net.cpp:141] Setting up ip1
I0108 22:22:58.395895  3496 net.cpp:148] Top shape: 100 10 (1000)
I0108 22:22:58.395901  3496 net.cpp:156] Memory required for data: 36050000
I0108 22:22:58.395913  3496 layer_factory.hpp:77] Creating layer ip1_ip1_0_split
I0108 22:22:58.395930  3496 net.cpp:91] Creating Layer ip1_ip1_0_split
I0108 22:22:58.395938  3496 net.cpp:425] ip1_ip1_0_split <- ip1
I0108 22:22:58.395948  3496 net.cpp:399] ip1_ip1_0_split -> ip1_ip1_0_split_0
I0108 22:22:58.395963  3496 net.cpp:399] ip1_ip1_0_split -> ip1_ip1_0_split_1
I0108 22:22:58.396020  3496 net.cpp:141] Setting up ip1_ip1_0_split
I0108 22:22:58.396034  3496 net.cpp:148] Top shape: 100 10 (1000)
I0108 22:22:58.396042  3496 net.cpp:148] Top shape: 100 10 (1000)
I0108 22:22:58.396049  3496 net.cpp:156] Memory required for data: 36058000
I0108 22:22:58.396054  3496 layer_factory.hpp:77] Creating layer accuracy
I0108 22:22:58.396067  3496 net.cpp:91] Creating Layer accuracy
I0108 22:22:58.396075  3496 net.cpp:425] accuracy <- ip1_ip1_0_split_0
I0108 22:22:58.396085  3496 net.cpp:425] accuracy <- label_cifar_1_split_0
I0108 22:22:58.396097  3496 net.cpp:399] accuracy -> accuracy
…
