…
I0108 23:15:16.765158 18849 solver.cpp:92] Creating training net from net file: examples/cifar10/cifar10_full.proto
I0108 23:15:16.765378 18849 net.cpp:313] The NetState phase (0) differed from the phase (1) specified by a rule in layer cifar
I0108 23:15:16.765489 18849 net.cpp:49] Initializing net from parameters: 
name: "CIFAR10_full"
state {
  phase: TRAIN
}
layer {
  name: "cifar"
  type: "Data"
  top: "data"
  top: "label"
  include {
    phase: TRAIN
  }
  transform_param {
    mean_file: "examples/cifar10/mean.binaryproto"
  }
  data_param {
    source: "examples/cifar10/cifar10_train_lmdb"
    batch_size: 100
    backend: LMDB
  }
}
layer {
  name: "conv1"
  type: "Convolution"
  bottom: "data"
  top: "conv1"
  param {
    lr_mult: 1
  }
  param {
    lr_mult: 2
  }
  convolution_param {
    num_output: 32
    pad: 2
    kernel_size: 5
    stride: 1
    weight_filler {
      type: "gaussian"
      std: 0.0001
    }
    bias_filler {
      type: "constant"
    }
  }
}
layer {
  name: "pool1"
  type: "Pooling"
  bottom: "conv1"
  top: "pool1"
  pooling_param {
    pool: MAX
    kernel_size: 3
    stride: 2
  }
}
layer {
  name: "relu1"
  type: "ReLU"
  bottom: "pool1"
  top: "pool1"
}
layer {
  name: "norm1"
  type: "BatchNorm"
  bottom: "pool1"
  top: "norm1"
}
layer {
  name: "conv2"
  type: "Convolution"
  bottom: "norm1"
  top: "conv2"
  param {
    lr_mult: 1
  }
  param {
    lr_mult: 2
  }
  convolution_param {
    num_output: 32
    pad: 2
    kernel_size: 5
    stride: 1
    weight_filler {
      type: "gaussian"
      std: 0.01
    }
    bias_filler {
      type: "constant"
    }
  }
}
layer {
  name: "relu2"
  type: "ReLU"
  bottom: "conv2"
  top: "conv2"
}
layer {
  name: "pool2"
  type: "Pooling"
  bottom: "conv2"
  top: "pool2"
  pooling_param {
    pool: AVE
    kernel_size: 3
    stride: 2
  }
}
layer {
  name: "norm2"
  type: "BatchNorm"
  bottom: "pool2"
  top: "norm2"
}
layer {
  name: "conv3"
  type: "Convolution"
  bottom: "norm2"
  top: "conv3"
  convolution_param {
    num_output: 64
    pad: 2
    kernel_size: 5
    stride: 1
    weight_filler {
      type: "gaussian"
      std: 0.01
    }
    bias_filler {
      type: "constant"
    }
  }
}
layer {
  name: "relu3"
  type: "ReLU"
  bottom: "conv3"
  top: "conv3"
}
layer {
  name: "pool3"
  type: "Pooling"
  bottom: "conv3"
  top: "pool3"
  pooling_param {
    pool: AVE
    kernel_size: 3
    stride: 2
  }
}
layer {
  name: "ip1"
  type: "InnerProduct"
  bottom: "pool3"
  top: "ip1"
  param {
    lr_mult: 1
    decay_mult: 250
  }
  param {
    lr_mult: 2
    decay_mult: 0
  }
  inner_product_param {
    num_output: 10
    weight_filler {
      type: "gaussian"
      std: 0.01
    }
    bias_filler {
      type: "constant"
    }
  }
}
layer {
  name: "accuracy"
  type: "Accuracy"
  bottom: "ip1"
  bottom: "label"
  top: "accuracy"
}
layer {
  name: "loss"
  type: "SoftmaxWithLoss"
  bottom: "ip1"
  bottom: "label"
  top: "loss"
}
I0108 23:15:16.765645 18849 layer_factory.hpp:77] Creating layer cifar
I0108 23:15:16.766041 18849 net.cpp:91] Creating Layer cifar
I0108 23:15:16.766060 18849 net.cpp:399] cifar -> data
I0108 23:15:16.766093 18849 net.cpp:399] cifar -> label
I0108 23:15:16.766113 18849 data_transformer.cpp:25] Loading mean file from: examples/cifar10/mean.binaryproto
I0108 23:15:16.766698 18855 db_lmdb.cpp:35] Opened lmdb examples/cifar10/cifar10_train_lmdb
I0108 23:15:16.774562 18849 data_layer.cpp:41] output data size: 100,3,32,32
I0108 23:15:16.777529 18849 net.cpp:141] Setting up cifar
I0108 23:15:16.777559 18849 net.cpp:148] Top shape: 100 3 32 32 (307200)
I0108 23:15:16.777595 18849 net.cpp:148] Top shape: 100 (100)
I0108 23:15:16.777603 18849 net.cpp:156] Memory required for data: 1229200
I0108 23:15:16.777621 18849 layer_factory.hpp:77] Creating layer label_cifar_1_split
I0108 23:15:16.777640 18849 net.cpp:91] Creating Layer label_cifar_1_split
I0108 23:15:16.777652 18849 net.cpp:425] label_cifar_1_split <- label
I0108 23:15:16.777669 18849 net.cpp:399] label_cifar_1_split -> label_cifar_1_split_0
I0108 23:15:16.777686 18849 net.cpp:399] label_cifar_1_split -> label_cifar_1_split_1
I0108 23:15:16.777734 18849 net.cpp:141] Setting up label_cifar_1_split
I0108 23:15:16.777745 18849 net.cpp:148] Top shape: 100 (100)
I0108 23:15:16.777755 18849 net.cpp:148] Top shape: 100 (100)
I0108 23:15:16.777761 18849 net.cpp:156] Memory required for data: 1230000
I0108 23:15:16.777770 18849 layer_factory.hpp:77] Creating layer conv1
I0108 23:15:16.777796 18849 net.cpp:91] Creating Layer conv1
I0108 23:15:16.777804 18849 net.cpp:425] conv1 <- data
I0108 23:15:16.777818 18849 net.cpp:399] conv1 -> conv1
I0108 23:15:16.778573 18849 net.cpp:141] Setting up conv1
I0108 23:15:16.778594 18849 net.cpp:148] Top shape: 100 32 32 32 (3276800)
I0108 23:15:16.778601 18849 net.cpp:156] Memory required for data: 14337200
I0108 23:15:16.778626 18849 layer_factory.hpp:77] Creating layer pool1
I0108 23:15:16.778640 18849 net.cpp:91] Creating Layer pool1
I0108 23:15:16.778647 18849 net.cpp:425] pool1 <- conv1
I0108 23:15:16.778658 18849 net.cpp:399] pool1 -> pool1
I0108 23:15:16.778918 18849 net.cpp:141] Setting up pool1
I0108 23:15:16.778931 18849 net.cpp:148] Top shape: 100 32 16 16 (819200)
I0108 23:15:16.778940 18849 net.cpp:156] Memory required for data: 17614000
I0108 23:15:16.778950 18849 layer_factory.hpp:77] Creating layer relu1
I0108 23:15:16.778975 18849 net.cpp:91] Creating Layer relu1
I0108 23:15:16.778980 18849 net.cpp:425] relu1 <- pool1
I0108 23:15:16.778990 18849 net.cpp:386] relu1 -> pool1 (in-place)
I0108 23:15:16.779002 18849 net.cpp:141] Setting up relu1
I0108 23:15:16.779012 18849 net.cpp:148] Top shape: 100 32 16 16 (819200)
I0108 23:15:16.779021 18849 net.cpp:156] Memory required for data: 20890800
I0108 23:15:16.779027 18849 layer_factory.hpp:77] Creating layer norm1
I0108 23:15:16.779039 18849 net.cpp:91] Creating Layer norm1
I0108 23:15:16.779047 18849 net.cpp:425] norm1 <- pool1
I0108 23:15:16.779057 18849 net.cpp:399] norm1 -> norm1
I0108 23:15:16.779197 18849 net.cpp:141] Setting up norm1
I0108 23:15:16.779213 18849 net.cpp:148] Top shape: 100 32 16 16 (819200)
I0108 23:15:16.779219 18849 net.cpp:156] Memory required for data: 24167600
I0108 23:15:16.779237 18849 layer_factory.hpp:77] Creating layer conv2
I0108 23:15:16.779253 18849 net.cpp:91] Creating Layer conv2
I0108 23:15:16.779260 18849 net.cpp:425] conv2 <- norm1
I0108 23:15:16.779273 18849 net.cpp:399] conv2 -> conv2
I0108 23:15:16.780364 18849 net.cpp:141] Setting up conv2
I0108 23:15:16.780380 18849 net.cpp:148] Top shape: 100 32 16 16 (819200)
I0108 23:15:16.780387 18849 net.cpp:156] Memory required for data: 27444400
I0108 23:15:16.780400 18849 layer_factory.hpp:77] Creating layer relu2
I0108 23:15:16.780411 18849 net.cpp:91] Creating Layer relu2
I0108 23:15:16.780418 18849 net.cpp:425] relu2 <- conv2
I0108 23:15:16.780431 18849 net.cpp:386] relu2 -> conv2 (in-place)
I0108 23:15:16.780441 18849 net.cpp:141] Setting up relu2
I0108 23:15:16.780449 18849 net.cpp:148] Top shape: 100 32 16 16 (819200)
I0108 23:15:16.780457 18849 net.cpp:156] Memory required for data: 30721200
I0108 23:15:16.780465 18849 layer_factory.hpp:77] Creating layer pool2
I0108 23:15:16.780478 18849 net.cpp:91] Creating Layer pool2
I0108 23:15:16.780483 18849 net.cpp:425] pool2 <- conv2
I0108 23:15:16.780494 18849 net.cpp:399] pool2 -> pool2
I0108 23:15:16.780519 18849 net.cpp:141] Setting up pool2
I0108 23:15:16.780531 18849 net.cpp:148] Top shape: 100 32 8 8 (204800)
I0108 23:15:16.780537 18849 net.cpp:156] Memory required for data: 31540400
I0108 23:15:16.780545 18849 layer_factory.hpp:77] Creating layer norm2
I0108 23:15:16.780555 18849 net.cpp:91] Creating Layer norm2
I0108 23:15:16.780582 18849 net.cpp:425] norm2 <- pool2
I0108 23:15:16.780593 18849 net.cpp:399] norm2 -> norm2
I0108 23:15:16.780735 18849 net.cpp:141] Setting up norm2
I0108 23:15:16.780747 18849 net.cpp:148] Top shape: 100 32 8 8 (204800)
I0108 23:15:16.780755 18849 net.cpp:156] Memory required for data: 32359600
I0108 23:15:16.780773 18849 layer_factory.hpp:77] Creating layer conv3
I0108 23:15:16.780788 18849 net.cpp:91] Creating Layer conv3
I0108 23:15:16.780797 18849 net.cpp:425] conv3 <- norm2
I0108 23:15:16.780807 18849 net.cpp:399] conv3 -> conv3
I0108 23:15:16.781471 18849 net.cpp:141] Setting up conv3
I0108 23:15:16.781482 18849 net.cpp:148] Top shape: 100 64 8 8 (409600)
I0108 23:15:16.781489 18849 net.cpp:156] Memory required for data: 33998000
I0108 23:15:16.781502 18849 layer_factory.hpp:77] Creating layer relu3
I0108 23:15:16.781512 18849 net.cpp:91] Creating Layer relu3
I0108 23:15:16.781519 18849 net.cpp:425] relu3 <- conv3
I0108 23:15:16.781530 18849 net.cpp:386] relu3 -> conv3 (in-place)
I0108 23:15:16.781541 18849 net.cpp:141] Setting up relu3
I0108 23:15:16.781550 18849 net.cpp:148] Top shape: 100 64 8 8 (409600)
I0108 23:15:16.781558 18849 net.cpp:156] Memory required for data: 35636400
I0108 23:15:16.781565 18849 layer_factory.hpp:77] Creating layer pool3
I0108 23:15:16.781572 18849 net.cpp:91] Creating Layer pool3
I0108 23:15:16.781577 18849 net.cpp:425] pool3 <- conv3
I0108 23:15:16.781585 18849 net.cpp:399] pool3 -> pool3
I0108 23:15:16.781607 18849 net.cpp:141] Setting up pool3
I0108 23:15:16.781616 18849 net.cpp:148] Top shape: 100 64 4 4 (102400)
I0108 23:15:16.781622 18849 net.cpp:156] Memory required for data: 36046000
I0108 23:15:16.781627 18849 layer_factory.hpp:77] Creating layer ip1
I0108 23:15:16.781638 18849 net.cpp:91] Creating Layer ip1
I0108 23:15:16.781646 18849 net.cpp:425] ip1 <- pool3
I0108 23:15:16.781658 18849 net.cpp:399] ip1 -> ip1
I0108 23:15:16.782161 18849 net.cpp:141] Setting up ip1
I0108 23:15:16.782176 18849 net.cpp:148] Top shape: 100 10 (1000)
I0108 23:15:16.782183 18849 net.cpp:156] Memory required for data: 36050000
I0108 23:15:16.782196 18849 layer_factory.hpp:77] Creating layer ip1_ip1_0_split
I0108 23:15:16.782207 18849 net.cpp:91] Creating Layer ip1_ip1_0_split
I0108 23:15:16.782213 18849 net.cpp:425] ip1_ip1_0_split <- ip1
I0108 23:15:16.782224 18849 net.cpp:399] ip1_ip1_0_split -> ip1_ip1_0_split_0
I0108 23:15:16.782235 18849 net.cpp:399] ip1_ip1_0_split -> ip1_ip1_0_split_1
I0108 23:15:16.782269 18849 net.cpp:141] Setting up ip1_ip1_0_split
I0108 23:15:16.782279 18849 net.cpp:148] Top shape: 100 10 (1000)
I0108 23:15:16.782287 18849 net.cpp:148] Top shape: 100 10 (1000)
I0108 23:15:16.782294 18849 net.cpp:156] Memory required for data: 36058000
I0108 23:15:16.782301 18849 layer_factory.hpp:77] Creating layer accuracy
I0108 23:15:16.782313 18849 net.cpp:91] Creating Layer accuracy
I0108 23:15:16.782320 18849 net.cpp:425] accuracy <- ip1_ip1_0_split_0
I0108 23:15:16.782330 18849 net.cpp:425] accuracy <- label_cifar_1_split_0
I0108 23:15:16.782340 18849 net.cpp:399] accuracy -> accuracy
…
